Train data shape: (50000, 32, 32, 3)
Train labels shape: (50000, 10)
Test data shape: (10000, 32, 32, 3)
Test labels shape: (10000, 10)
Model: "model"
_________________________________________________________________
Layer (type)                 Output Shape              Param #   
=================================================================
input.1 (InputLayer)         [(None, 32, 32, 3)]       0         
_________________________________________________________________
9 (Conv2D)                   (None, 30, 30, 16)        448       
_________________________________________________________________
10 (Activation)              (None, 30, 30, 16)        0         
_________________________________________________________________
11 (MaxPooling2D)            (None, 15, 15, 16)        0         
_________________________________________________________________
12 (Conv2D)                  (None, 13, 13, 32)        4640      
_________________________________________________________________
13 (Activation)              (None, 13, 13, 32)        0         
_________________________________________________________________
14 (MaxPooling2D)            (None, 6, 6, 32)          0         
_________________________________________________________________
15 (Conv2D)                  (None, 4, 4, 64)          18496     
_________________________________________________________________
16 (Activation)              (None, 4, 4, 64)          0         
_________________________________________________________________
17 (GlobalAveragePooling2D)  (None, 64)                0         
_________________________________________________________________
17_EXPAND1 (Lambda)          (None, 64, 1)             0         
_________________________________________________________________
17_EXPAND2 (Lambda)          (None, 64, 1, 1)          0         
_________________________________________________________________
19 (Reshape)                 (None, 64)                0         
_________________________________________________________________
20 (Dense)                   (None, 10)                650       
_________________________________________________________________
21 (Lambda)                  (None, 10)                0         
=================================================================
Total params: 24,234
Trainable params: 24,234
Non-trainable params: 0
_________________________________________________________________
Epoch 1/5
  1/500 [..............................] - ETA: 1:46 - loss: 2.3097 - accuracy: 0.1500  8/
…
