…
tf_loader.py:703: extract_sub_graph (from tensorflow.python.framework.graph_util_impl) is deprecated and will be removed in a future version.
Instructions for updating:
Use `tf.compat.v1.graph_util.extract_sub_graph`
Train data shape: (50000, 32, 32, 3)
Train labels shape: (50000, 10)
Test data shape: (10000, 32, 32, 3)
Test labels shape: (10000, 10)
Model: "sequential"
_________________________________________________________________
Layer (type)                 Output Shape              Param #   
=================================================================
conv2d (Conv2D)              (None, 30, 30, 16)        448       
_________________________________________________________________
re_lu (ReLU)                 (None, 30, 30, 16)        0         
_________________________________________________________________
max_pooling2d (MaxPooling2D) (None, 15, 15, 16)        0         
_________________________________________________________________
conv2d_1 (Conv2D)            (None, 13, 13, 32)        4640      
_________________________________________________________________
re_lu_1 (ReLU)               (None, 13, 13, 32)        0         
_________________________________________________________________
max_pooling2d_1 (MaxPooling2 (None, 6, 6, 32)          0         
_________________________________________________________________
conv2d_2 (Conv2D)            (None, 4, 4, 64)          18496     
_________________________________________________________________
re_lu_2 (ReLU)               (None, 4, 4, 64)          0         
_________________________________________________________________
global_average_pooling2d (Gl (None, 64)                0         
_________________________________________________________________
flatten (Flatten)            (None, 64)                0         
_________________________________________________________________
dense (Dense)                (None, 10)                650       
=================================================================
Total params: 24,234
Trainable params: 24,234
Non-trainable params: 0
_________________________________________________________________
Epoch 1/200
  1/500 [..............................] - ETA: 1:51 - loss: 2.3156 - accuracy: 0.0800  8/
…
